microservices/stress_recognizer/best-model-parameters.pt (torch, 534780 bytes, 10 tensors)

linear_relu_stack.0.weight f4 [256, 352]
0	0xbc6f5f5e	-0.01461014
1	0xbc339c92	-0.010962622
2	0xbcd6e889	-0.026233928
3	0xbc98c23a	-0.018647302
4	0xbd5a0313	-0.053225588
5	0xbc9ef89a	-0.019405652
6	0x3d26a462	0.04068411
7	0x3ce0a70a	0.0274234
8	0xbd1bcb73	-0.03803582
9	0x3c42b998	0.011885069
10	0xbc374be2	-0.0111875255
11	0x3d0a40c9	0.03375319
12	0x3bb85faa	0.0056266384
13	0xbcd64cc2	-0.026159648
14	0xbcb01fbd	-0.021499509
15	0xbc6b44ba	-0.014359647
16	0xbd399ac4	-0.04531361
17	0xbc953e79	-0.018218266
18	0xbd51da00	-0.05123329
19	0xb976c5d5	-0.00023534086
20	0xbc6bffee	-0.01440428
21	0xbce5978e	-0.028026368
22	0xbd20fd30	-0.03930396
23	0xbc28b96f	-0.010298117
24	0x3cd853ac	0.026407085
25	0x3cd79347	0.026315344
26	0xba39c399	-0.0007086336
27	0xbcbda57e	-0.023150202
28	0xbbca8331	-0.00618019
29	0xbd06921c	-0.032854185
30	0x3c947f12	0.018126998
31	0xbc4f4c66	-0.012652492
32	0xbcfa699b	-0.030567935
33	0x3ba22b80	0.0049490333
34	0x3d442ed7	0.047896232
35	0x3cca8b1c	0.024724536
36	0xbd0c7bdf	-0.03429782
37	0xbd5715b2	-0.052510925
38	0x3d1d7c42	0.03844858
39	0xbd26322f	-0.040575203
40	0x3cc09199	0.023506926
41	0xbc3bf4cc	-0.011471938
42	0x3c200c3e	0.009768544
43	0x3c41858e	0.011811627
44	0x3d2c2520	0.042027593
45	0x3bb7a6f9	0.0056046215
46	0xbb422455	-0.0029623706
47	0xbd2362d5	-0.039889175
48	0x3c1ea09a	0.009681845
49	0xbc5ced94	-0.013484377
50	0x3d14c7a4	0.036323205
51	0x3cdb2194	0.02674941
52	0xbd04accf	-0.032391366
53	0xbc0d6bbe	-0.008631645
54	0x3d20812f	0.0391857
55	0xbd3f5067	-0.046707537
56	0xbd019dfd	-0.03164481
57	0xbc6e9eb5	-0.014564206
58	0x3d2b4935	0.041817863
59	0x3ce4fda1	0.027952971
60	0xbcc980cd	-0.02459755
61	0x3b2aa911	0.0026040713
62	0xbce15003	-0.027503973
63	0xbc1456ce	-0.009053899
64	0x3cf08bff	0.02936363
65	0xbd14c10b	-0.036316913
66	0xbc67338b	-0.01411141
67	0xbd589abb	-0.052881937
68	0xbd0770f4	-0.033066705
69	0x3bbe24d3	0.0058027296
70	0x3d0d6f49	0.034529958
71	0xbd011f4d	-0.03152399
72	0xbd2fb6d4	-0.042898968
73	0x3c89e807	0.016834272
74	0x3d3cb54d	0.04607134
75	0xbc818889	-0.015812175
76	0x3d384e5f	0.044996615
77	0x3d232d42	0.039838083
78	0x3a38daf1	0.0007051668
79	0x39914100	0.00027704984
80	0x3d1abbd6	0.03777679
81	0xbabba836	-0.0014317099
82	0xbd399f9c	-0.04531823
83	0x3cdbd46f	0.026834695
84	0xbd5a3e94	-0.053282335
85	0xbd1d9840	-0.038475275
86	0xbd36e151	-0.044648472
87	0xbd43f592	-0.047841616
88	0x3b9ae0ab	0.0047264895
89	0xbd635068	-0.055496603
90	0xbcc7d98f	-0.024395732
91	0x3d2c391b	0.042046648
92	0xbd3e9e64	-0.04653777
93	0x3b284b36	0.0025679595
94	0xbd4b5b04	-0.049647346
95	0xbd59c1a7	-0.053163197
96	0xbd0fc5a7	-0.035100605
97	0xbd30a626	-0.0431272
98	0xbc109b0c	-0.008826029
99	0x3cc78cbf	0.024359105
100	0xbcd42250	-0.025895268
101	0x3bca00a1	0.0061646258
102	0x3d0574aa	0.032581963
103	0x3c9cdc2a	0.019147951
104	0x3d2ebc26	0.0426599
105	0x3c6b24d3	0.014352041
106	0x3b205973	0.0024467378
107	0x3c2de237	0.010613016
108	0x3ce6ab4f	0.028157858
109	0xbd58ca65	-0.052927393
110	0xbd2460f8	-0.04013154
111	0x3d2d0bd9	0.042247627
112	0x3d06221c	0.032747373
113	0xbbc27df1	-0.0059354235
114	0x3c965264	0.018349834
115	0x3cb8bd47	0.022551192
116	0xbd6cac46	-0.05778148
117	0xbd474ad4	-0.048655346
118	0x3cb4cf8b	0.02207162
119	0x3b4e094f	0.0031438654
120	0x3bba246b	0.005680611
121	0x3c8047b3	0.015659189
122	0x3d3815c2	0.044942625
123	0x3d359430	0.044330776
124	0xbbd769f1	-0.0065739085
125	0x3c6cfbf9	0.014464372
126	0x3c0c4cc3	0.008563223
127	0x3d3f1e7c	0.04665993
128	0xbd66a9fa	-0.056314446
129	0xbd0396e0	-0.032126307
130	0x3d17157e	0.03688573
131	0x3d23d9a4	0.04000248
132	0xbc836a59	-0.016041921
133	0xbcbed36c	-0.023294173
134	0x3cdee0fb	0.027206888
135	0xbd544915	-0.05182751
136	0x3d28445d	0.04108082
137	0xbc3ca7dc	-0.01151463
138	0x3b4ce88b	0.0031266536
139	0xbc0ca05b	-0.008583154
140	0xbb308287	-0.002693327
141	0x3cc9d1ab	0.02463611
142	0xbc1a7dec	-0.009429436
143	0xbd191d45	-0.03738143
144	0x3becab26	0.007222551
145	0xbd4f2b31	-0.0505783
146	0xbc701bab	-0.014655034
147	0x3b967bb8	0.004592385
148	0x3c9c01ee	0.019043889
149	0x3caebecf	0.021331219
150	0x3baf1177	0.005342658
151	0xbc739028	-0.0148659125
152	0xbc449bca	-0.012000034
153	0x3c1d9dd0	0.009620145
154	0xbd1d54e4	-0.038411036
155	0xbc4455ef	-0.011983379
156	0xbc9c1c43	-0.019056445
157	0x3cff3289	0.031152027
158	0x3ca05c9e	0.019575413
159	0xbd47ff98	-0.048827738
160	0x3ae26933	0.0017273783
161	0xbd108a0f	-0.035287913
162	0xbd441983	-0.047875892
163	0xbc472bb9	-0.01215642
164	0xbb0ad22e	-0.0021182406
165	0x3c221a5a	0.009893978
166	0xbcb4f2ad	-0.022088373
167	0x3c7efbee	0.015562994
168	0xbd6a68eb	-0.057228964
169	0x3d29e402	0.04147721
170	0xbd43ba43	-0.047785055
171	0x3ca41739	0.020030605
172	0xbbe4c233	-0.006981158
173	0x3c90a573	0.017657017
174	0x3d325294	0.043535784
175	0x3c0743e3	0.008255932
176	0x3c4e7e43	0.012603345
177	0x3cd6c97d	0.026219124
178	0x3c08b872	0.008344756
179	0x3c494c74	0.012286294
180	0x3cf12e7f	0.029441116
181	0xbd673f2c	-0.05645673
182	0x3cb04961	0.021519365
183	0xbaf40495	-0.0018617088
184	0xbd2a6165	-0.04159679
185	0x3d2e447e	0.042545788
186	0xbd550a3f	-0.052011725
187	0x3d0a6a87	0.033793
188	0xb9fc2401	-0.0004809201
189	0xbd3599f0	-0.04433626
190	0xbb4af751	-0.0030970166
191	0xbd397119	-0.045273874
192	0xbcc19481	-0.023630382
193	0xbd5a0374	-0.05322595
194	0xbd1126f9	-0.035437558
195	0x3c830dc3	0.015997773
196	0xbd561e32	-0.05227489
197	0x3aabda04	0.0013111238
198	0xbc8332f9	-0.016015517
199	0x3d4d4695	0.05011614
200	0xbc4f8c78	-0.012667768
201	0x3cb68144	0.022278436
202	0xbcf965cd	-0.03044405
203	0xbceb4e70	-0.028723925
204	0xbc2da5c3	-0.010598603
205	0x3c4dba2f	0.012556597
206	0x3c57628b	0.013146053
207	0x3ccfea73	0.025380349
208	0x3c0ac181	0.0084689865
209	0x3b37ccd8	0.002804568
210	0xbd0fddd0	-0.035123646
211	0xbd04bd8e	-0.032407336
212	0xbd5ccc21	-0.05390561
213	0x3d04d265	0.03242721
214	0xbcc79f46	-0.02436794
215	0xbc9dfe9f	-0.019286452
216	0x3d2dc4c8	0.042423993
217	0x3b469fb1	0.0030307586
218	0xbd36b9cc	-0.044610783
219	0x3ab77ae6	0.0013998419
220	0x3d3d2c3b	0.04618476
221	0xbd172259	-0.03689799
222	0x3d318b54	0.043345764
223	0x3d29d4a7	0.041462567
224	0xbc9cce6f	-0.019141404
225	0xbd2ddfc2	-0.04244972
226	0x3bd89037	0.0066089886
227	0xbbc83604	-0.006109955
228	0xbbcc6172	-0.0062372023
229	0x3b826aa5	0.003979998
230	0x3c4b7a6c	0.012419324
231	0xbd272b1c	-0.040812597
232	0x3bc09454	0.005877057
233	0x3d448074	0.047974065
234	0x3bcf5262	0.0063269595
235	0xbba32673	-0.0049789487
236	0x3d31cbf9	0.043407414
237	0x3c261558	0.010136925
238	0xbd12ea14	-0.035867766
239	0x3ccf047d	0.025270695
240	0xbcd9cccc	-0.026586913
241	0x3cf49299	0.02985506
242	0x3d445d42	0.0479405
243	0x3d21345c	0.039356574
244	0x3d374ee1	0.04475296
245	0xbd518744	-0.05115439
246	0xbc8f5a2e	-0.017499056
247	0x3d2f5036	0.042801104
248	0x3ca5472a	0.020175535
249	0xbd45b6e5	-0.048270125
250	0xbcc9a28f	-0.024613647
251	0x3d2a86b7	0.04163238
252	0x3b5c0e49	0.003357785
253	0x3ba55b4a	0.005046283
254	0x3c553401	0.013012887
255	0xbd0fa37c	-0.03506802

linear_relu_stack.0.bias f4 [256]
0	0xbcf90866	-0.030399512
1	0x3c537352	0.0129059125
2	0x3d4e7dd3	0.050412964
3	0x3ce337e7	0.027736617
4	0x3b8609ea	0.0040905373
5	0xbd447cea	-0.04797069
6	0x3c2d441f	0.010575323
7	0xbce2c08e	-0.027679708
8	0xbd6cb481	-0.05778933
9	0xbc8a3ede	-0.01687568
10	0xbd3b3546	-0.045705102
11	0xbc903fbd	-0.017608518
12	0x3d65c3d9	0.056094978
13	0x3c789b8a	0.015173802
14	0x3d2a5215	0.041582186
15	0xbbff28b9	-0.007786837
16	0x3cdda820	0.027057707
17	0xbd08ffa1	-0.03344691
18	0xbb654b84	-0.0034987638
19	0xbd49f676	-0.04930731
20	0x3cfee670	0.03111574
21	0xbd455405	-0.04817583
22	0xbc26dc06	-0.010184294
23	0x3d12eeb4	0.035872176
24	0xbca9f936	-0.020748716
25	0x3ceb208f	0.028702049
26	0xbcc7d8a8	-0.024395302
27	0x3beca255	0.0072215
28	0x3c39cbc1	0.011340083
29	0xbcdac963	-0.026707357
30	0xbc7042fb	-0.014664407
31	0xbc94e8fc	-0.018177502
32	0x3c352fa4	0.011058722
33	0xbb219d33	-0.0024660348
34	0xbca54d62	-0.0201785
35	0xbc2c2c60	-0.010508627
36	0x3cf1304b	0.029441973
37	0x3d29be54	0.041441277
38	0xbc85cb4a	-0.016332287
39	0xbd420144	-0.04736449
40	0xbd000bb5	-0.031261165
41	0xbc05e2c6	-0.008171743
42	0xbd2b4bfc	-0.04182051
43	0x3cebd767	0.028789235
44	0xbce08173	-0.027405476
45	0x3cbf3e83	0.023345238
46	0xbcf6eaaa	-0.030141193
47	0xbd51c551	-0.051213566
48	0x3c99c48f	0.018770484
49	0xba15fdf9	-0.0005721744
50	0xbce2376e	-0.027614322
51	0xbd30a0f5	-0.04312225
52	0xbd2c58d8	-0.042076916
53	0x3d021374	0.031756833
54	0x3a859442	0.0010191279
55	0xbd1a134c	-0.03761606
56	0xbd036484	-0.03207828
57	0x3c143134	0.009044934
58	0xbd4c3b92	-0.0498615
59	0xbcd1af04	-0.02559615
60	0x3c8d38ee	0.01723906
61	0xbcac246c	-0.021013461
62	0x3ac465a4	0.0014983905
63	0xbb105eac	-0.0022029085
64	0x3c1769cf	0.009241535
65	0x3d0eefb3	0.034896564
66	0xbce283fc	-0.027650826
67	0x3d11059b	0.035405736
68	0x3c7a8c23	0.0152922
69	0xbd35ea78	-0.04441306
70	0x3d5be871	0.05368847
71	0x3d37f784	0.044913784
72	0xbc7c0146	-0.015381163
73	0xbcf0ff4c	-0.02941861
74	0xbcac2c8a	-0.021017332
75	0x3d24103a	0.040054537
76	0x3d5944d2	0.053044148
77	0x3d27cfdd	0.04096972
78	0xbd1ca5dd	-0.038244117
79	0xbd0f1a91	-0.034937445
80	0x3b1ede44	0.0024241367
81	0x3b92fd48	0.00448576
82	0x399b5300	0.00029625744
83	0x3c0909a9	0.00836412
84	0x3d6d609e	0.05795347
85	0xbc9324b5	-0.01796184
86	0xbb23cc20	-0.0024993494
87	0xbbe0fbf9	-0.006865975
88	0xbd4dc5f5	-0.050237615
89	0xbcf9ebb2	-0.030507896
90	0x3d2d580b	0.042320292
91	0x3d1a0845	0.037605543
92	0x3ccca95b	0.024983099
93	0xbd1c80a5	-0.038208622
94	0xbc945dd3	-0.018111145
95	0xbc1fffbc	-0.009765562
96	0x3d26895c	0.04065834
97	0x3935a473	0.00017322767
98	0x3d5773fe	0.052600853
99	0x3ca8c059	0.020599531
100	0x3d5b3956	0.053521477
101	0x3d2fb27a	0.042894818
102	0xbd0d3842	-0.03447748
103	0x3d1fef06	0.03904631
104	0xbcaf37d7	-0.021388931
105	0xbd5236d7	-0.05132183
106	0xbc550320	-0.013001233
107	0x3c9b576d	0.018962586
108	0x3d1b73ab	0.037952106
109	0xbcd37388	-0.025811926
110	0xbd0fcc8b	-0.035107177
111	0x3cf2fe5a	0.0296623
112	0xbc505bfd	-0.012717244
113	0xbd7afc3d	-0.06127571
114	0x3c3753e0	0.011189431
115	0xbc4818ae	-0.012212915
116	0x3d04ea1a	0.03244982
117	0xbd139804	-0.036033645
118	0x3d1d568b	0.038412612
119	0x3d548b0d	0.05189042
120	0xbcc1a689	-0.02363898
121	0x3cf465dc	0.029833727
122	0x3aacb029	0.0013175058
123	0xbd128756	-0.035773598
124	0xbd380bdd	-0.04493319
125	0x3bec7dc2	0.00721714
126	0x3ca5d6a7	0.020243956
127	0xbd12bdbe	-0.035825484
128	0x3d3790b1	0.044815723
129	0x3c6f5df0	0.014609799
130	0xbd2dac6a	-0.042400755
131	0x3d019e39	0.031645034
132	0x3cb0de04	0.02159024
133	0x3c40e1e8	0.01177261
134	0xbd4c3b09	-0.049860988
135	0x3cc5dd12	0.024153266
136	0x3d0549ab	0.03254096
137	0x3d26d6b7	0.04073211
138	0xbd22602d	-0.0396425
139	0x3cb1f234	0.021721937
140	0xbca9993c	-0.02070295
141	0x3d157d3c	0.036496386
142	0xbc1b50aa	-0.009479681
143	0xbc8aefb3	-0.01696
144	0xbd738a0c	-0.059457824
145	0xbcd58c62	-0.026067916
146	0xbccc9f17	-0.024978204
147	0x3bbf675f	0.00584118
148	0x3cac9306	0.0210662
149	0xbcb6bbf2	-0.022306416
150	0x3c5b48c4	0.013384048
151	0xbd553c6e	-0.052059583
152	0xbd5b76df	-0.05358016
153	0x3d28edd9	0.041242454
154	0x3d1dccf7	0.038525548
155	0xbd4b4e3d	-0.04963516
156	0xbcd97281	-0.026543858
157	0x3c925c46	0.017866265
158	0x3cad6609	0.021166818
159	0xbab8e755	-0.0014107028
160	0x3a87343d	0.0010315251
161	0x3b8a8964	0.004227804
162	0xbcd5245d	-0.026018316
163	0x3d83c98f	0.064349286
164	0xb95ea800	-0.00021234155
165	0x3caded27	0.021231247
166	0xbd2c8520	-0.042119145
167	0x3d071911	0.03298289
168	0xbc6ab63a	-0.014325673
169	0x3cccd420	0.025003493
170	0xbd60bc32	-0.054866977
171	0xbd4f848f	-0.050663527
172	0x3d1fffe4	0.039062396
173	0xbd13ffbb	-0.036132555
174	0xbcc20065	-0.023681829
175	0xbb98fd87	-0.0046688947
176	0xbcb6619b	-0.022263339
177	0xbca15ea0	-0.019698441
178	0x3d2b2714	0.041785315
179	0xbc7ff162	-0.015621515
180	0x3c54c8ba	0.01298731
181	0xbce49541	-0.027903201
182	0x3cad79ba	0.021176208
183	0x3c28d2b5	0.010304143
184	0x3d005586	0.03133156
185	0xbd38ba4b	-0.045099538
186	0x3d01c84e	0.031685166
187	0x3be997b5	0.0071286806
188	0x3d1cefa4	0.038314477
189	0xbc6be97d	-0.01439893
190	0x3c52cc9a	0.012866164
191	0xbb51d077	-0.0032015124
192	0xbd5fba1f	-0.05462086
193	0x3d6d994d	0.058007527
194	0x3d2503ce	0.04028683
195	0x3c6632f2	0.014050232
196	0xbcb54a7f	-0.022130249
197	0xbcc7b244	-0.024376996
198	0x3d37c838	0.044868678
199	0xbcc8fdfd	-0.024535174
200	0x3d306ea6	0.043074273
201	0xbd185b16	-0.03719624
202	0xbd7ddd36	-0.06197854
203	0xbd3e02a5	-0.04638924
204	0x3cc9f8e6	0.024654817
205	0xbd6f94e2	-0.058491595
206	0xbd48e823	-0.049049508
207	0xba9d0932	-0.001198089
208	0x3bde87b3	0.006791079
209	0x3c07feef	0.008300527
210	0x3cd6fad6	0.026242655
211	0x3d68cf67	0.05683842
212	0x3d4ad25c	0.04951702
213	0xbcd87eb0	-0.026427597
214	0xbcbd869b	-0.023135474
215	0xbcd97c5b	-0.026548555
216	0xbd5b3a2c	-0.053522274
217	0x3d14a95e	0.036294334
218	0xbca623aa	-0.020280678
219	0xbce4dd8c	-0.027937673
220	0x3cf1fa74	0.02953837
221	0x3d33b464	0.043873206
222	0xbc1fc61b	-0.009751822
223	0xbccf0edd	-0.025275642
224	0xbcee8222	-0.029114787
225	0xbd227481	-0.039661888
226	0x3d41f906	0.047356628
227	0x3cb8b827	0.022548748
228	0xbc416ec2	-0.011806192
229	0xbcf78be0	-0.030218065
230	0x3c5b639d	0.013390449
231	0xbd390230	-0.0451681
232	0x3d179e82	0.0370164
233	0xbd4d5567	-0.050130274
234	0x3d20ab36	0.03922578
235	0x3cbbfd31	0.02294788
236	0xbcdd4a49	-0.027012961
237	0xbd609c62	-0.05483664
238	0xbc87b447	-0.016565455
239	0xbcf77336	-0.030206304
240	0xbc1586ca	-0.0091263745
241	0xbd5f6e1f	-0.05454838
242	0x3d46c708	0.048529655
243	0xbba3fe89	-0.005004708
244	0xbc845c84	-0.016157396
245	0xbd2affc2	-0.041747816
246	0x3d35d0f4	0.044388726
247	0xbd653d0c	-0.055966422
248	0x3d9339bc	0.07188746
249	0x3c923090	0.017845422
250	0xbc724b35	-0.014788439
251	0x3c91b7e6	0.017787885
252	0x3cd00dbd	0.025397176
253	0xbc8bf4c0	-0.01708448
254	0x3bb86d99	0.0056282994
255	0xbd3c9666	-0.04604187

linear_relu_stack.2.weight f4 [128, 256]
0	0xbd86ce03	-0.06582262
1	0x3d18db7e	0.0373187
2	0xbc38436d	-0.011246544
3	0x3d269f6a	0.040679373
4	0x3b6948c6	0.0035596355
5	0x3d791e31	0.06081981
6	0x3c2f5948	0.010702439
7	0xbd282657	-0.04105219
8	0x3d8327f3	0.06404104
9	0xbcf4e60c	-0.029894851
10	0xbd0d453c	-0.034489855
11	0x3d603adc	0.054743633
12	0xbd5078e0	-0.050896525
13	0xbd2f7ac1	-0.042841677
14	0xbc710fef	-0.0147132715
15	0x3d7e6ff0	0.06211847
16	0x3bd035bf	0.0063540633
17	0x3c891e41	0.016738059
18	0x3d50df70	0.050994337
19	0xbd8ac5f8	-0.06776041
20	0xbcb73c34	-0.022367574
21	0x3c9f1bbe	0.019422408
22	0xbd604707	-0.054755237
23	0xbd84d1cb	-0.06485327
24	0xbc8318fa	-0.01600312
25	0xbc973cc2	-0.018461589
26	0x3d410d2a	0.047131695
27	0xbd288516	-0.041142546
28	0x3a8d0156	0.0010757844
29	0xbcfd0558	-0.030886337
30	0xbbd6a27a	-0.0065501304
31	0xbd034f4e	-0.032058053
32	0x3d3e2391	0.046420638
33	0x3d1aa627	0.03775611
34	0xbd7e84da	-0.062138416
35	0xba255480	-0.0006306842
36	0x3c23c73f	0.009996234
37	0xbb8da323	-0.004322426
38	0x3d4da0b1	0.050202075
39	0x3d46ef34	0.048567966
40	0xbcb8e936	-0.022572141
41	0xbd52b191	-0.05143887
42	0x3d6ad0ca	0.057328023
43	0x3d09dc92	0.033657618
44	0xbc3f5b16	-0.011679431
45	0xbc1adde9	-0.009452322
46	0x3c57551e	0.013142852
47	0x3c89a661	0.016802968
48	0xbcddaadd	-0.027059013
49	0x3c2bf9ee	0.0104966
50	0xbca1f8bc	-0.019771926
51	0x3d496cbd	0.049175967
52	0x3d2e5563	0.0425619
53	0x3c0ca9cb	0.008585404
54	0xbc5d4d2e	-0.013507171
55	0x3ba42637	0.0050094384
56	0xbc61ba88	-0.013777383
57	0x3c2c8a70	0.010531053
58	0xbd099e02	-0.033597954
59	0x3c40730b	0.011746178
60	0x3c45ae1d	0.012065438
61	0xbc2c9566	-0.010533666
62	0xbd80ede6	-0.062953755
63	0x3d3700bf	0.044678446
64	0x3ced84c5	0.028993974
65	0x3bca3af8	0.0061715804
66	0x3cb77a44	0.022397168
67	0xbd8940fe	-0.067018494
68	0x3d536078	0.05160567
69	0xbbdbde39	-0.0067098406
70	0xbd4b308c	-0.049606845
71	0xbd80e3c3	-0.06293442
72	0x3a8d3c75	0.0010775464
73	0x3cc9ddb0	0.024641842
74	0x3d24a09b	0.040192228
75	0xbd86445a	-0.06556006
76	0xbc87a400	-0.016557693
77	0x3d0846f1	0.03327078
78	0xbcf96d8c	-0.030447744
79	0xbc0fa893	-0.008768219
80	0xbc58cbd7	-0.013232193
81	0xbcaad6e8	-0.020854428
82	0xbd03984c	-0.032127663
83	0xbd4d2cf9	-0.050091717
84	0xbd2cbde5	-0.042173285
85	0xbd3def60	-0.046370864
86	0x3d6e3507	0.05815604
87	0xbd532b73	-0.05155511
88	0xbd58f154	-0.052964523
89	0x3cd2e2a3	0.025742834
90	0xba86e0fa	-0.0010290437
91	0xbc75b01d	-0.014995602
92	0x3c7e8a0e	0.0155358445
93	0x3cc10c36	0.023565393
94	0x3c06eae0	0.0082347095
95	0x3d336819	0.043800447
96	0xbd2bb78e	-0.0419231
97	0x3d225110	0.03962809
98	0x3d46c3a0	0.048526406
99	0x3d850dfe	0.064968094
100	0xbc4f6127	-0.01265744
101	0xbd08b030	-0.03337115
102	0x3cad7aeb	0.021176776
103	0x3c4d1060	0.012516111
104	0x3d423ca5	0.047421116
105	0xbca2224c	-0.019791745
106	0x3aefefc0	0.0018305704
107	0x3c5e5df1	0.013572202
108	0xbd0bb1d9	-0.034105156
109	0x3cc48850	0.02399078
110	0xbd2b904b	-0.041885655
111	0xbd59f376	-0.053210698
112	0xbccebf51	-0.025237711
113	0x3d2d01a0	0.042237878
114	0xbcea7774	-0.028621413
115	0x3c40309e	0.011730341
116	0x3c34f2d4	0.011044223
117	0x3d78634d	0.060641576
118	0x3d4c3887	0.049858596
119	0xbca7f788	-0.020503774
120	0xbd5c16de	-0.053732745
121	0xbcb0b6ce	-0.021571543
122	0x3d120ee1	0.03565872
123	0x3b98d54b	0.0046640984
124	0x3cad9348	0.021188393
125	0x3d689df1	0.05679125
126	0xbc600bc3	-0.013674679
127	0x3d6d1062	0.057876952
128	0x3ca40c4f	0.0200254
129	0xbcc56f20	-0.02410084
130	0xbd40632b	-0.046969574
131	0x3cbec627	0.023287846
132	0xbcce0a50	-0.025151402
133	0x3d0553a2	0.03255046
134	0x3c8306a5	0.01599438
135	0x3d43dad5	0.047816116
136	0xbcbadf17	-0.022811456
137	0xbd4880df	-0.048951026
138	0x3b8a7bd0	0.0042261854
139	0xbc969889	-0.018383281
140	0x3c067c09	0.008208283
141	0xbc5958b8	-0.013265781
142	0x3a80bf9d	0.000982273
143	0x3d6aec99	0.057354543
144	0xbcc02b2a	-0.023458082
145	0xbbbfad10	-0.005849488
146	0x3cba05de	0.022707876
147	0x3d652143	0.055939924
148	0x3c6f2fdc	0.014598813
149	0x3bc758cc	0.0060835835
150	0x3d51b63a	0.051199175
151	0xbcd87a27	-0.026425434
152	0x3cfa58a7	0.03055985
153	0x3d08b5c4	0.03337647
154	0x3c21e6d2	0.009881692
155	0xbcf53d70	-0.029936522
156	0x3c17ac03	0.009257319
157	0x3d63c2ca	0.055605687
158	0xbb15dfca	-0.0022868984
159	0xba580374	-0.00082402606
160	0x3c711d6e	0.014716489
161	0xbcb61d50	-0.022230774
162	0xbd859645	-0.06522802
163	0xbd09c261	-0.03363264
164	0x3d3b56f2	0.045737214
165	0x3ce0a666	0.027423095
166	0x3c6701d7	0.01409956
167	0x3c9307dc	0.017948084
168	0xbbed73f5	-0.007246489
169	0x3d1ac620	0.037786603
170	0xbcf79025	-0.0302201
171	0x3d4b0e20	0.049574018
172	0x3d028f18	0.031874746
173	0xbd6ef0e0	-0.058335185
174	0xbd7aea95	-0.06125887
175	0x3baf7cb5	0.0053554424
176	0x3d58a155	0.052888233
177	0x3d166014	0.03671272
178	0x3d19f03c	0.03758262
179	0x3d5fcad1	0.05463678
180	0xbc1c2933	-0.009531307
181	0xbd78fa35	-0.06078549
182	0x3c5ed36d	0.0136002125
183	0xbc0a0184	-0.008423213
184	0x3ccf73c2	0.025323752
185	0xbc8032b9	-0.015649186
186	0x3d60d925	0.054894585
187	0x3c11b147	0.008892364
188	0x3d55826f	0.052126344
189	0xbcf02227	-0.02931316
190	0x3c9dc78c	0.01926019
191	0xbccdfa16	-0.025143664
192	0x3bf617e3	0.0075101717
193	0xbd6d2ccc	-0.05790405
194	0x3d2ed3fb	0.04268263
195	0x3d23c798	0.03998527
196	0x3d089676	0.033346616
197	0x3ae4807e	0.0017433313
198	0xbcdd9c50	-0.027052075
199	0xbce7327b	-0.028222313
200	0xbc78321d	-0.015148667
201	0xbd23a5b1	-0.039952938
202	0xbce26f02	-0.027640823
203	0x3bd487f0	0.0064859316
204	0xbb20f5bc	-0.0024560532
205	0xbd040c3d	-0.032238234
206	0xbc47507d	-0.012165186
207	0x3ceac96d	0.0286605
208	0xbd3ee24f	-0.046602543
209	0x3cab20bd	0.020889634
210	0x3cc11f57	0.023574514
211	0xbcd38f94	-0.0258253
212	0xbd0c347f	-0.03422975
213	0x3d13753b	0.03600047
214	0x3c053561	0.008130402
215	0x3d29d23a	0.041460253
216	0x3d870b9e	0.06594013
217	0xbd5d4298	-0.054018587
218	0x3c9baffc	0.019004814
219	0xbc02c4d7	-0.007981501
220	0xbd672b9c	-0.056438074
221	0x3c4905a7	0.012269414
222	0xbd5e17a6	-0.05422177
223	0xbc0a0ff6	-0.008426657
224	0xbb50d052	-0.003186245
225	0xbd4db4df	-0.05022132
226	0x3b8a6db8	0.0042245053
227	0x3d470d36	0.048596583
228	0x3d49db32	0.049281307
229	0x3c4b0c99	0.01239314
230	0xbcb0f2f4	-0.021600224
231	0x3d040483	0.032230865
232	0x3d5e05e5	0.05420484
233	0xbcef625b	-0.029221704
234	0x3d32c177	0.043641534
235	0x3d127f5c	0.03576599
236	0xbbfd4d85	-0.0077301883
237	0xbd520992	-0.05127866
238	0x3d2f8715	0.042853434
239	0x3ce15370	0.027505606
240	0xbd3864df	-0.045018073
241	0x3d3b33de	0.04570376
242	0x3c8573ea	0.016290624
243	0x3d77d10a	0.06050209
244	0x3cd62bfd	0.026144022
245	0xbca886e0	-0.020572126
246	0xbd4d154c	-0.05006914
247	0xbcd20ddd	-0.025641376
248	0xbca1d3da	-0.019754339
249	0xbcc9d6d2	-0.024638567
250	0xbbdfe92a	-0.0068332152
251	0x3cd5ffb3	0.026122903
252	0x3d2930e4	0.04130639
253	0x3b572f67	0.003283465
254	0xbc991160	-0.018685043
255	0xbd32be1c	-0.043638334

linear_relu_stack.2.bias f4 [128]
0	0xbd282f23	-0.041060578
1	0x3d5ccbc9	0.053905282
2	0xbd7c232a	-0.061556973
3	0x3d578564	0.052617446
4	0xbd0cf014	-0.034408644
5	0x3bd7f89a	0.006590915
6	0xbb91b059	-0.004446071
7	0x3cfceda6	0.030875038
8	0x3d1ca068	0.038238913
9	0x3c453690	0.0120369345
10	0xbd7ca95c	-0.06168495
11	0x3d3fbd3c	0.046811327
12	0x3a940bc3	0.0011295009
13	0x3cffdba9	0.031232672
14	0x3cbd2134	0.023087122
15	0xbd3fc789	-0.04682115
16	0xbcd55212	-0.02604011
17	0x3d575fef	0.052581724
18	0xbd508c11	-0.050914828
19	0xba898ee3	-0.0010494854
20	0x3cb0055e	0.021486934
21	0xbce7371e	-0.028224524
22	0xbd038b43	-0.032115232
23	0xbceb1c34	-0.028699972
24	0x3cae6793	0.021289622
25	0xbc646d3b	-0.013942058
26	0xbcb40950	-0.021977097
27	0x3b853acc	0.004065847
28	0x3c9a2b1c	0.018819384
29	0x3cb548a2	0.02212936
30	0x3d4e4513	0.050358843
31	0x3c98c8b0	0.018650383
32	0xbbd1f343	-0.006407173
33	0x3d2d639b	0.04233132
34	0xbd5bc338	-0.053652972
35	0x3cd37ff6	0.025817852
36	0x3b1c7868	0.0023875479
37	0x3caac16f	0.02084419
38	0xbcb620cc	-0.022232436
39	0xbc815b4d	-0.015790606
40	0x3c370a7f	0.011171936
41	0x3b82a38e	0.0039867824
42	0xbafd7818	-0.0019338159
43	0x3d052694	0.032507494
44	0xbd4895eb	-0.048971098
45	0xbd9aa1a1	-0.075503595
46	0xbd4641a8	-0.04840246
47	0xbc54bf19	-0.012985014
48	0x3d368bc4	0.044566885
49	0x3c5e1a20	0.013556033
50	0x3c8d5b1b	0.017255357
51	0xbc3ad461	-0.011403174
52	0xbd7779dc	-0.06041895
53	0x3d5e8236	0.054323398
54	0xbc47c70e	-0.012193454
55	0xbd84994d	-0.06474552
56	0x3d7da947	0.061929014
57	0xbca5eb58	-0.020253822
58	0x3cd72cf2	0.026266549
59	0xbc729701	-0.01480651
60	0x3cd4b6f8	0.025966153
61	0x3d44650d	0.047947932
62	0xbd817f3a	-0.06323095
63	0xbc39cbf2	-0.011340128
64	0xbd50425d	-0.05084454
65	0xbd0a117a	-0.033708073
66	0x3ccec789	0.02524163
67	0x3c5e9017	0.013584158
68	0xbd3d58de	-0.04622733
69	0xbd06ee49	-0.03294209
70	0x3cf52309	0.029923933
71	0x3b615a45	0.003438608
72	0xbd3bee95	-0.045881826
73	0x3cce527c	0.025185816
74	0xbd104024	-0.03521742
75	0x3c7aeb6d	0.015314919
76	0x3d2a8ff7	0.0416412
77	0xbd2c812a	-0.042115368
78	0x3ca470b5	0.020073274
79	0xbbd22b48	-0.006413851
80	0x3d72aa32	0.059244342
81	0xbd6b14a3	-0.057392728
82	0x3c79ac68	0.015238859
83	0x3a294dee	0.0006458451
84	0x3d408745	0.047004003
85	0xbd3e7292	-0.04649598
86	0xbd0b5acf	-0.03402215
87	0x3bcbaa82	0.0062153945
88	0xbd3002b2	-0.04297132
89	0xbcf4e26c	-0.029893123
90	0xbca8a15c	-0.020584755
91	0x3c814a3c	0.015782468
92	0xbbe078b8	-0.0068503283
93	0xbbf88847	-0.007584605
94	0x3d68b21f	0.056810495
95	0x3ccbe0cb	0.024887463
96	0x3cda0d4c	0.026617669
97	0xbd17ec4f	-0.037090596
98	0xbd00086b	-0.031258028
99	0x3d15b9d6	0.03655418
100	0xbd2b0801	-0.04175568
101	0x3ce67fc5	0.028137097
102	0x3bea2006	0.007144931
103	0xbce4b5d4	-0.027918734
104	0x3c99fcc3	0.018797284
105	0xbd834e56	-0.06411426
106	0xbd557442	-0.052112825
107	0x3c45d9b0	0.0120758265
108	0xbb8c90ec	-0.004289737
109	0xbcc78b74	-0.024358489
110	0x3ba1411b	0.0049210913
111	0x3d6325bf	0.05545592
112	0xbd1f0d2e	-0.03883093
113	0x3cde3455	0.027124563
114	0xbc4942a5	-0.012283956
115	0xbca3dad5	-0.020001808
116	0x3d18ed02	0.037335403
117	0xbce2828e	-0.027650144
118	0xbaff27df	-0.0019466839
119	0xbd4fd0d6	-0.05073627
120	0xbd4c2981	-0.04984427
121	0xbcadbd97	-0.021208568
122	0x3d3dadb4	0.046308234
123	0xbd6ae978	-0.05735156
124	0xbd7886c7	-0.06067541
125	0xbc37c5cd	-0.011216593
126	0xbb1caa8f	-0.0023905372
127	0xbbf24e70	-0.0073946044

linear_relu_stack.4.weight f4 [64, 128]
0	0xbce9eafe	-0.028554436
1	0x3d6246d2	0.05524332
2	0x3d842333	0.06452026
3	0xbc8528e8	-0.016254857
4	0xbd42e9aa	-0.04758612
5	0x3ceb4924	0.0287214
6	0xbd24f281	-0.040270332
7	0x3d8e8875	0.06959621
8	0xbd892d86	-0.06698136
9	0x3d74bbfa	0.05974958
10	0xbd98ee78	-0.07467359
11	0x3a3bd080	0.0007164553
12	0xbd84b93d	-0.06480644
13	0x3c998d3c	0.018744104
14	0x3ca441c8	0.020050898
15	0x3dadcc4b	0.084862314
16	0x3d8e98d3	0.06962743
17	0xbdb476e4	-0.08811739
18	0xbd85f1ce	-0.06540261
19	0x3d9b9345	0.07596449
20	0x3d7da2ae	0.06192272
21	0xbc2dda88	-0.010611184
22	0x3c9229f4	0.01784227
23	0x3c7e9ce0	0.015540332
24	0x3ca850c4	0.020546325
25	0x3ce932fc	0.028466694
26	0x3cd95164	0.026528068
27	0xbd794d4e	-0.06086474
28	0xbdb35529	-0.087564774
29	0x3d0d50cc	0.034500882
30	0x3d465de2	0.048429377
31	0xbd128875	-0.035774667
32	0xbc847d2c	-0.016172968
33	0x3d945d91	0.07244409
34	0x3c00a0e8	0.007850863
35	0xbd97fb92	-0.0742103
36	0xbd8af373	-0.067847155
37	0xbd930d9d	-0.07180331
38	0x3d48e6ee	0.049048357
39	0xbd3b9ce7	-0.04580393
40	0x3c8f8d34	0.017523386
41	0x3d907ea9	0.070554085
42	0xbd748e1e	-0.059705846
43	0xbd893ca9	-0.06701023
44	0x3ce65f68	0.028121665
45	0x3b2da9e0	0.0026498958
46	0xbd950ce7	-0.072778516
47	0xbdaf01df	-0.08545279
48	0x3d15868e	0.036505274
49	0xbca6d618	-0.02036576
50	0x3bdf8b90	0.006822057
51	0xbdaf0c22	-0.08547236
52	0xbc4a4d48	-0.012347527
53	0xbca36efc	-0.019950382
54	0xbd084950	-0.03327304
55	0x3db1faa3	0.08690383
56	0xbd585856	-0.05281862
57	0xb9a7f700	-0.00032036752
58	0x3cda86b4	0.02667556
59	0xbd594650	-0.05304557
60	0xbceff74a	-0.029292721
61	0x3d120042	0.035644777
62	0x3d1189ee	0.03553193
63	0x3c67de88	0.014152177
64	0xbd329f4b	-0.043608945
65	0x3d2721a6	0.040803574
66	0x3d2b623e	0.041841738
67	0xbcd8fa4a	-0.026486535
68	0xbd160fd7	-0.0366362
69	0x3d00cd38	0.03144571
70	0xbc9556dc	-0.018229894
71	0x3d6adfae	0.057342224
72	0x39cc1100	0.00038922578
73	0x3d082424	0.03323759
74	0xbdaa6d2f	-0.08321606
75	0xbc147830	-0.009061858
76	0xbd88c0fe	-0.06677435
77	0xbd656a09	-0.056009326
78	0x3d3b00de	0.045655124
79	0xbd555c9e	-0.05209028
80	0xbdb219a7	-0.08696299
81	0x3cfd9c0c	0.030958198
82	0xbd31eff9	-0.043441746
83	0x3d101888	0.035179645
84	0xbd96483b	-0.073379956
85	0xbd222db8	-0.039594382
86	0x3d88b193	0.066744946
87	0xbc791808	-0.015203483
88	0xbcfa8114	-0.030579127
89	0xbcaf2830	-0.021381468
90	0x3cb612c8	0.022225752
91	0xbda35fe4	-0.07977274
92	0xbd9c1c0a	-0.076225355
93	0xbdb26522	-0.08710696
94	0xbd392638	-0.045202464
95	0xbced8d04	-0.028997906
96	0x3cd93a64	0.0265171
97	0x3bfd7b20	0.007735625
98	0x3d5448ee	0.051827364
99	0xbd7225bb	-0.059118014
100	0xbb8a74b0	-0.004225336
101	0x3d8fa639	0.07014126
102	0xbc068808	-0.008211143
103	0xbbe34ab0	-0.0069363937
104	0xbab21280	-0.0013585836
105	0xbcd66990	-0.026173383
106	0x3d7d606a	0.061859526
107	0xbd1bcc86	-0.038036846
108	0xbcbf9ea4	-0.023391075
109	0xbce813d2	-0.028329764
110	0x3cc448c0	0.023960471
111	0xbda29897	-0.079392605
112	0x3a749580	0.00093301386
113	0x3da1a55d	0.07892869
114	0xbd8c9a52	-0.06865372
115	0x3bd05d80	0.0063588023
116	0xbce99a90	-0.028516084
117	0xbd413c10	-0.04717642
118	0xbcf0c054	-0.029388584
119	0xbd7e95f7	-0.062154736
120	0xbd23b4f0	-0.039967477
121	0x3c989214	0.018624343
122	0xbd839423	-0.06424739
123	0x3d7499e6	0.05971708
124	0x3d82ea13	0.06392302
125	0xbd96260c	-0.073314756
126	0x3d29082e	0.041267566
127	0xbd8b46f0	-0.0680064
128	0xbd7da8f7	-0.061928716
129	0xbd9427cb	-0.072341524
130	0xbcbdd5cc	-0.023173235
131	0x3d6140c0	0.05499339
132	0x3c44dbdc	0.012015309
133	0x3dadd73c	0.08488318
134	0xbc37904a	-0.011203835
135	0xbca5e290	-0.020249635
136	0x3c171560	0.009221405
137	0xbd2d67b6	-0.042335235
138	0x3dc12d6c	0.09432492
139	0x3cc4d62c	0.024027906
140	0xbd5fe1ff	-0.054658886
141	0x3c95d2f4	0.018289067
142	0xbb374ce0	-0.0027969405
143	0xbd597698	-0.053091615
144	0x3cd91ee7	0.026503993
145	0xbc89cc3f	-0.016821025
146	0xba880939	-0.0010378725
147	0x3c984629	0.018588142
148	0xbce14bde	-0.027501997
149	0xbda65ad8	-0.08122796
150	0xbc105630	-0.008809611
151	0x3d4f1afe	0.05056285
152	0xbd87342e	-0.06601749
153	0xbc868ce2	-0.0164246
154	0x3c6ad770	0.014333591
155	0xbca9260c	-0.020648025
156	0x3d486a0c	0.04892926
157	0x3cbb3f4c	0.02285733
158	0xbd6092d4	-0.054827526
159	0xbcf6603e	-0.030075189
160	0xbca75bd8	-0.020429537
161	0xbcd63ece	-0.026152994
162	0x3d9c8dcd	0.07644234
163	0xbd65a43d	-0.056064833
164	0xbcdb236c	-0.026750289
165	0xbc18f3ea	-0.009335497
166	0xbd43a0f8	-0.047760934
167	0x3d8533ee	0.065040454
168	0x3b9eadbe	0.004842489
169	0x3d6f73a4	0.058459893
170	0xbc66a6e8	-0.0140778795
171	0x3d8d651f	0.06904053
172	0x3d964c7f	0.07338809
173	0xbd655992	-0.055993624
174	0xbce6e1c2	-0.028183822
175	0x3cf77099	0.030205058
176	0xbc9b25ac	-0.018938862
177	0xbd8c976e	-0.068648204
178	0xbc27704a	-0.010219643
179	0xbdb48792	-0.088149205
180	0x3da364ec	0.07978234
181	0xbd718765	-0.058967013
182	0xbd8bcadc	-0.06825802
183	0xbd80a8b6	-0.06282179
184	0xbd7f2029	-0.06228653
185	0x3da8608e	0.08221541
186	0xbce5626a	-0.028001029
187	0x3da60e16	0.081081554
188	0x3ca88714	0.020572223
189	0x3c6ca598	0.0144437775
190	0x3d8db8bf	0.06920003
191	0x3ad73555	0.0016419092
192	0x3d2d04da	0.042240955
193	0xbd6058de	-0.05477225
194	0xb98c1b71	-0.00026723326
195	0xbd40f423	-0.047107827
196	0x3d99a70f	0.07502567
197	0xbdb1575c	-0.086592406
198	0xba06e19b	-0.0005145312
199	0xbd30a8fe	-0.043129914
200	0x3d12706c	0.035751745
201	0xbd9fcf24	-0.07803181
202	0xbd101746	-0.035178445
203	0xbd2b834c	-0.04187326
204	0xbd295854	-0.041344002
205	0x3bc6bcb2	0.0060649747
206	0x3c2b5a6f	0.010458573
207	0x3d149f8c	0.03628497
208	0x3d1dcf1e	0.0385276
209	0xbb96df44	-0.004604252
210	0x3daf1362	0.08548619
211	0xbd35c5f2	-0.04437823
212	0x3ba7a372	0.0051159197
213	0x3d02fb3e	0.031977884
214	0x3c8e072b	0.017337402
215	0xbd0d8930	-0.03455466
216	0xbb3fb920	-0.002925463
217	0x3cbc38d8	0.022976324
218	0xbd02add4	-0.031904057
219	0xbb12e3c0	-0.0022413582
220	0xbd5b17ad	-0.053489376
221	0xbbaaab47	-0.005208406
222	0xbcbba334	-0.02290497
223	0xbc8527fc	-0.016254418
224	0xbcd304e3	-0.025759166
225	0x3dba2d0c	0.09090623
226	0xbcd8a076	-0.026443701
227	0xbc854c07	-0.016271604
228	0xbd3219ae	-0.04348152
229	0x3d378884	0.044807926
230	0x3cb9b714	0.022670306
231	0x3d5cc6f6	0.05390068
232	0x3cf8a484	0.030351885
233	0x3d0f8c7c	0.035046086
234	0xbbeff1c1	-0.0073225205
235	0xbd90f567	-0.07078057
236	0x3d3fef67	0.04685917
237	0xbdaa5aa8	-0.083180726
238	0xbcd7a7b2	-0.02632508
239	0x3da996d3	0.082807206
240	0x3bbf44e8	0.0058370717
241	0xbd168f2d	-0.036757637
242	0xbc958bb7	-0.018255098
243	0x3db06add	0.086141326
244	0xbd9b5d48	-0.07586151
245	0xbd20f9dd	-0.03930079
246	0x3bbf95e0	0.005846724
247	0x3d6e3c92	0.058163233
248	0x3d4873b8	0.048938483
249	0xbd38aa38	-0.04508421
250	0xbcf7bb69	-0.030240731
251	0x3d073e4c	0.033018395
252	0x3d2dd9de	0.042444102
253	0x3d41cda6	0.047315262
254	0x3d857c08	0.06517798
255	0xbc8dc518	-0.017305896

linear_relu_stack.4.bias f4 [64]
0	0x3d941dcd	0.072322465
1	0x3dba0783	0.09083464
2	0xbbbfac78	-0.0058494173
3	0x3bdf6482	0.0068174014
4	0x3cb1046c	0.021608554
5	0xbc9d05f2	-0.019167874
6	0x3cc02b0e	0.02345803
7	0xbcf8d6d5	-0.030375877
8	0xbda08a00	-0.078388214
9	0x3d240c4e	0.040050797
10	0xbceded8a	-0.029043932
11	0x3d8555fa	0.06510539
12	0x3d3a56a6	0.04549279
13	0xbd2cf936	-0.042229854
14	0xbd756eba	-0.05992005
15	0xbd8c5a17	-0.06853121
16	0xbbee5fb3	-0.007274592
17	0xbd82cdb2	-0.063868895
18	0x3c93b616	0.018031161
19	0x3d62b2ad	0.05534618
20	0x3d3e6546	0.0464833
21	0x3b7c87b0	0.0038533024
22	0x3c948f1a	0.018134642
23	0xbdb47870	-0.08812034
24	0xbc9e489e	-0.019321736
25	0xbd1a8c9b	-0.037731748
26	0x3d8df92d	0.06932292
27	0x3d7a9a43	0.06118227
28	0x3d75f77d	0.060050476
29	0xbd6435fa	-0.05571554
30	0x3d10d7a6	0.03536191
31	0x3c81b893	0.015835082
32	0x3d82871b	0.063734256
33	0xbdbdc2b0	-0.09265649
34	0xbd9b9ea1	-0.075986154
35	0xbd155015	-0.036453325
36	0x3d0eed01	0.034893993
37	0xbda6222d	-0.08111987
38	0xbdbd082c	-0.09230074
39	0x3d36d043	0.044632208
40	0xbdc15155	-0.09439341
41	0x3d07993c	0.03310512
42	0x3d0d3ebf	0.034483667
43	0x3c260c28	0.010134734
44	0x3cc92ad0	0.024556547
45	0xbd5887ae	-0.05286377
46	0xbd03e510	-0.032200873
47	0xbd7639b0	-0.06011361
48	0x3cb74c7f	0.022375343
49	0xbdbe1513	-0.09281363
50	0xbd72f090	-0.05931145
51	0xbd1ec59b	-0.03876267
52	0xbdae4fbb	-0.08511301
53	0x3c91a9e4	0.017781205
54	0xbdbfb8ab	-0.093613945
55	0x3bed77a9	0.0072469306
56	0xbce9f197	-0.028557582
57	0x3c45c8c6	0.012071794
58	0xbd02b4bd	-0.031910647
59	0x3d936066	0.07196121
60	0x3d710178	0.05883929
61	0xbd838cb2	-0.0642332
62	0xbd8426b1	-0.06452692
63	0x3ced3935	0.028957943

linear_relu_stack.6.weight f4 [16, 64]
0	0xbcc384d0	-0.02386704
1	0x3cc69d6c	0.024244986
2	0xbd4171fc	-0.047227845
3	0xbddf5b1d	-0.1090605
4	0xbce671c5	-0.028130421
5	0xbd1d142d	-0.03834932
6	0x3df3d812	0.119064465
7	0xbdf39759	-0.11894102
8	0xbdc2ba18	-0.09508151
9	0xbc972e1e	-0.018454608
10	0x3d84c2b0	0.06482446
11	0xbdde7365	-0.108618535
12	0x3de00436	0.10938303
13	0xbca3e253	-0.02000538
14	0xbd01ba86	-0.031672023
15	0xbdbbfc40	-0.09178972
16	0xbdeef95d	-0.11668656
17	0xbdcbc914	-0.09950462
18	0xbdf25fec	-0.11834702
19	0x3ceb8cca	0.028753657
20	0xbdef2210	-0.11676419
21	0x3de65cc3	0.11248162
22	0x3cdab0dc	0.026695661
23	0xbc542f95	-0.012950798
24	0x3d00cf3c	0.031447634
25	0xbd5e9e8c	-0.05435042
26	0x3de46699	0.111523814
27	0xbd841392	-0.06449045
28	0xbe052172	-0.1300104
29	0x3d26fb6c	0.04076712
30	0x3d852615	0.06501404
31	0xbd6a3a6d	-0.057184625
32	0xbdfc0610	-0.12305844
33	0x3def0ecf	0.116727464
34	0x3d4d7f7d	0.05017041
35	0xbda92fa9	-0.082610436
36	0x3daf165e	0.08549188
37	0x3da570de	0.08078168
38	0xbc277a81	-0.010222078
39	0x3d1cc0ff	0.038269993
40	0x3bb8a09e	0.0056343814
41	0x3c50ef15	0.012752314
42	0x3d5be5c7	0.05368593
43	0xbd748b70	-0.05970329
44	0xbda54159	-0.08069105
45	0xbdca1603	-0.0986748
46	0x3dec7f6e	0.11547743
47	0xbd67df85	-0.05660965
48	0x3d91456d	0.0709332
49	0x3da70c6c	0.08156666
50	0x3ccd29bd	0.025044316
51	0xbd461107	-0.048356082
52	0xbdf7ebcc	-0.121055216
53	0x3dc3c16a	0.09558375
54	0xbd839205	-0.064243354
55	0x3dcad88d	0.09904585
56	0xbda3fcb1	-0.080071814
57	0x3da18192	0.07886042
58	0x3d82641c	0.063667506
59	0x3d9a3ff5	0.0753173
60	0xbdbd175a	-0.092329696
61	0xbdf95b49	-0.121756144
62	0xbd30f694	-0.043203905
63	0x3dcb7ff7	0.09936517
64	0x3cbf0420	0.023317397
65	0x3dd020c7	0.10162502
66	0xbc033320	-0.008007795
67	0x3d06408b	0.032776397
68	0xbda36b09	-0.079794
69	0x3cf9a888	0.03047587
70	0x3d8ba354	0.06818262
71	0xbd65795e	-0.056023948
72	0xbdbcce5d	-0.09219048
73	0x3d85a7bc	0.065261334
74	0xbb2af740	-0.0026087314
75	0xbd034283	-0.032045852
76	0x3dd36a87	0.10323053
77	0xbdb71124	-0.08938816
78	0x3ce6d81d	0.028179223
79	0x3c2ffe80	0.01074183
80	0x3d0a8b2a	0.033824123
81	0xbc9efaab	-0.019406637
82	0xbdefe9ea	-0.117145374
83	0x3db69e6d	0.08916936
84	0xbd9fd1cc	-0.078036875
85	0x3d4eadde	0.05045878
86	0x3dbe6f0c	0.09298524
87	0xbd99d09b	-0.075104915
88	0x3c911dfb	0.017714491
89	0x3df96cda	0.12178965
90	0xbd7ca78c	-0.061683223
91	0x3c6c5c45	0.014426296
92	0x3d8f3305	0.06992153
93	0xbda12931	-0.07869185
94	0xbdf66f50	-0.1203295
95	0xbd3db825	-0.046318192
96	0xbde0f630	-0.109844565
97	0xbcfbfd46	-0.030760419
98	0x3dd3f48a	0.103493765
99	0x3cc33245	0.023827681
100	0x3d9d64ac	0.07685217
101	0x3d22de9e	0.039763086
102	0xbd2290ff	-0.03968906
103	0xbc33ad4f	-0.010966613
104	0x3dd55f5b	0.10418578
105	0xbddc51fa	-0.10757823
106	0xbd0f34a1	-0.0349623
107	0xbdc50852	-0.096207276
108	0x3dcb12c7	0.09915691
109	0x3ddce9c4	0.10786775
110	0x3d231064	0.039810553
111	0xbd573682	-0.052542217
112	0x3c7d783a	0.015470559
113	0xbdd0fa18	-0.102039516
114	0xbd8041b1	-0.0626253
115	0xbc75999c	-0.014990237
116	0x3dc6764a	0.096905306
117	0x398957df	0.00026196145
118	0x3d905f59	0.07049436
119	0x3c591255	0.013249
120	0x3dba092a	0.09083779
121	0x3d883bca	0.06652029
122	0x3dea243c	0.114326924
123	0x3c9156ea	0.01774164
124	0x3dc34147	0.09533935
125	0xbd85aca3	-0.065270685
126	0xbd225757	-0.039634075
127	0x3dda6ee9	0.10665686
128	0x3c37ce10	0.011218563
129	0x3dc8703a	0.097870305
130	0xbd2f49e0	-0.042795062
131	0x3d107a04	0.035272613
132	0x3d85afc6	0.06527667
133	0x3d22b465	0.03972282
134	0x3cc3edc6	0.02391709
135	0xbded3cd6	-0.11583869
136	0xbdf54339	-0.11975712
137	0xbd1213ee	-0.035663538
138	0x3dd2e44a	0.10297449
139	0x3d682f09	0.05668548
140	0x3db913dc	0.09036991
141	0x3cd95ac2	0.026532535
142	0x3da4b8cc	0.0804306
143	0xbda02542	-0.07819606
144	0x3d28a0cc	0.041168973
145	0x3b443947	0.0029941367
146	0xbde19638	-0.1101498
147	0x3d281b6c	0.041041777
148	0x3dc37f0e	0.09545718
149	0x3d841b58	0.06450528
150	0x3dc9cee2	0.09853913
151	0xbc828190	-0.01593092
152	0x3c494efc	0.012286898
153	0xbd130dd4	-0.03590186
154	0xbd7f5b8c	-0.062343165
155	0xbd766920	-0.06015885
156	0xbd70c8fa	-0.058785416
157	0xbd072fc5	-0.03300454
158	0xbbbbe7cd	-0.00573442
159	0xbc8ca4a5	-0.017168352
160	0xbdfa6e30	-0.12228048
161	0xbd8190cf	-0.06326448
162	0xbe0385b1	-0.12843968
163	0xbdae0a43	-0.08498051
164	0xbddbed3a	-0.10738607
165	0x3d5769e8	0.052591234
166	0xbdfb67fe	-0.12275694
167	0xbde7c784	-0.113173515
168	0xbdf1e255	-0.118107475
169	0x3d45a6ba	0.048254706
170	0x3db9d57a	0.090739205
171	0x3d4421f0	0.047883928
172	0x3dc98591	0.09839929
173	0xbcd6ce69	-0.02622147
174	0x3dc85e29	0.097835846
175	0xbcb6440b	-0.022249242
176	0x3dca40ea	0.098756626
177	0xbd7f16b8	-0.062277526
178	0xbd8380e8	-0.06421071
179	0xbdc89c88	-0.09795481
180	0x3c88cd60	0.016699493
181	0xbc962772	-0.018329356
182	0x3d585a26	0.052820347
183	0xbdf809aa	-0.12111218
184	0x3d5db173	0.054124307
185	0xbcd6d150	-0.026222855
186	0x3d3ae331	0.045626823
187	0x3df56a33	0.119831465
188	0x3d818c3f	0.06325578
189	0x3c0f680e	0.008752836
190	0xbdad8683	-0.08472922
191	0x3cb0a6f7	0.02156399
192	0x3db121ae	0.08649002
193	0xbd5da98d	-0.054116774
194	0xbc608a66	-0.013704872
195	0xbd08d5a4	-0.03340687
196	0xba074e87	-0.0005161543
197	0xbdf917ac	-0.12162718
198	0xbd663f1a	-0.056212522
199	0x3b027eb8	0.0019911956
200	0xbcd0e4d4	-0.025499739
201	0x3dc648db	0.09681865
202	0x3da01502	0.07816507
203	0x3d95bc68	0.07311326
204	0xbd7790dc	-0.060440883
205	0x3daeb72c	0.08531031
206	0x3aea695f	0.0017884186
207	0xbb5c3200	-0.0033599138
208	0x3de4c8b7	0.11171096
209	0x3d31214a	0.043244638
210	0x3df31b1e	0.118704066
211	0xbda525da	-0.0806386
212	0x3cacf338	0.02111207
213	0x3d2cdbb8	0.042201728
214	0xbc8e8a13	-0.017399823
215	0xbdbdded9	-0.092710204
216	0x3dbf0921	0.09327913
217	0x3ca3ed0a	0.02001049
218	0x3ca38f41	0.01996577
219	0xbd8ecf6c	-0.06973156
220	0xbd4be210	-0.049776137
221	0x3dbc53e5	0.09195689
222	0x3dee9c4b	0.11650904
223	0x3d01708f	0.031601485
224	0xbd0f21f4	-0.03494449
225	0x3de126b5	0.10993711
226	0xbd9bbf38	-0.076048315
227	0x3cde4de1	0.027136745
228	0x3dd8148e	0.105507955
229	0x3de8de72	0.11370553
230	0xbd2e4a31	-0.042551223
231	0xbd5923d3	-0.05301268
232	0x3dfbb9f6	0.122913286
233	0x3c8b763b	0.01702415
234	0xbdcf032e	-0.10108028
235	0x3dc9a568	0.09846002
236	0x3dfcbc89	0.12340648
237	0x3caacbed	0.020849193
238	0xbd994c5c	-0.074852675
239	0x3dd4fdf3	0.103999995
240	0x3d2162c7	0.039400842
241	0x3d6a3be2	0.057186015
242	0x3ca181cf	0.019715218
243	0xbdf06ac8	-0.11739117
244	0x3dbbb6ef	0.09165751
245	0x3c0858bb	0.008321936
246	0xbd442563	-0.047887217
247	0x3d14329e	0.036181085
248	0xbc4342ae	-0.011917753
249	0x3c84b5a7	0.0161999
250	0x3deab950	0.11461127
251	0xbd4560d8	-0.04818806
252	0x3d9b423e	0.07580994
253	0x3e019f15	0.12658341
254	0xbd845255	-0.06461016
255	0x3db901c2	0.090335384

linear_relu_stack.6.bias f4 [16]
0	0x3db5bb52	0.08873619
1	0x3d6fc5df	0.058538314
2	0xbdce12e4	-0.10062197
3	0xbd4434ed	-0.047902036
4	0xbdcc2f02	-0.099699035
5	0xbdafd722	-0.08585955
6	0xbd4e0b74	-0.05030389
7	0x3d47758c	0.048696086
8	0x3de566d3	0.11201253
9	0x3da18d48	0.078882754
10	0x3d09177f	0.033469673
11	0xbdd8854d	-0.105723
12	0x3dd233b0	0.10263765
13	0xbcee3932	-0.029080007
14	0x3d377496	0.04478892
15	0xbd65744a	-0.056019105

linear_relu_stack.8.weight f4 [2, 16]
0	0x3d11cd6a	0.03559629
1	0xbe099891	-0.13437106
2	0xbe1ad5e5	-0.15120657
3	0x3e3941b6	0.18091473
4	0xbe5ab63f	-0.21358584
5	0x3e0b8e10	0.13628411
6	0xbe046b93	-0.12931661
7	0xbe32ea3c	-0.17472166
8	0x3d357c37	0.044307914
9	0x3e098af2	0.1343191
10	0xbe626dee	-0.22112247
11	0xbdd29975	-0.10283176
12	0x3dec8216	0.115482494
13	0xbdcfe9d3	-0.1015202
14	0x3dff3243	0.124607585
15	0xbe08657a	-0.1331996
16	0x3e00cb79	0.12577619
17	0x3e6e384b	0.23263662
18	0x3dec82d5	0.11548392
19	0xbc2190e3	-0.009861204
20	0x3c5de895	0.013544221
21	0xbd07e6d8	-0.033179134
22	0x3d4175f4	0.04723163
23	0x3e2a3f04	0.16625601
24	0xbe095851	-0.13412596
25	0xbd4faeed	-0.05070393
26	0x3e29cfe4	0.1658321
27	0x3e423184	0.18964201
28	0xbd5f00c5	-0.054444093
29	0x3deeaedf	0.11654448
30	0xbe673d67	-0.22582017
31	0xbe796585	-0.24355133

linear_relu_stack.8.bias f4 [2]
0	0xbe761e7e	-0.2403507
1	0xbdc2af4b	-0.09506091
